…
/home/Domain-generalization-fault-diagnosis-benchmark-main/data_loader_1d.py:81: UserWarning: To copy construct from a tensor, it is recommended to use sourceTensor.detach().clone() or sourceTensor.detach().clone().requires_grad_(True), rather than torch.tensor(sourceTensor).
  train_fea= torch.tensor(train_fea, dtype=torch.float32)
/home/Domain-generalization-fault-diagnosis-benchmark-main/data_loader_1d.py:101: UserWarning: To copy construct from a tensor, it is recommended to use sourceTensor.detach().clone() or sourceTensor.detach().clone().requires_grad_(True), rather than torch.tensor(sourceTensor).
  train_fea = torch.tensor(train_fea, dtype=torch.float32)
(2000, 3200)
CNN_1D(
  (sharedNet): CNN(
    (layer1): Sequential(
      (0): Conv1d(1, 16, kernel_size=(64,), stride=(1,))
      (1): BatchNorm1d(16, eps=1e-05, momentum=0.1, affine=True, track_running_stats=True)
      (2): ReLU(inplace=True)
      (3): MaxPool1d(kernel_size=2, stride=2, padding=0, dilation=1, ceil_mode=False)
    )
    (layer2): Sequential(
      (0): Conv1d(16, 32, kernel_size=(16,), stride=(1,))
      (1): BatchNorm1d(32, eps=1e-05, momentum=0.1, affine=True, track_running_stats=True)
      (2): ReLU(inplace=True)
      (3): MaxPool1d(kernel_size=2, stride=2, padding=0, dilation=1, ceil_mode=False)
    )
    (layer3): Sequential(
      (0): Conv1d(32, 64, kernel_size=(5,), stride=(1,))
      (1): BatchNorm1d(64, eps=1e-05, momentum=0.1, affine=True, track_running_stats=True)
      (2): ReLU(inplace=True)
      (3): MaxPool1d(kernel_size=2, stride=2, padding=0, dilation=1, ceil_mode=False)
    )
    (layer4): Sequential(
      (0): Conv1d(64, 64, kernel_size=(5,), stride=(1,))
      (1): BatchNorm1d(64, eps=1e-05, momentum=0.1, affine=True, track_running_stats=True)
      (2): ReLU(inplace=True)
      (3): AdaptiveMaxPool1d(output_size=4)
    )
  )
  (cls_fc): Linear(in_features=256, out_features=10, bias=True)
)
learning rate 0.0010
Train iter: 10 [(0%)]	Loss: 1.931967	soft_Loss: 1.876555	contrastive_Loss: 5.541456
Train iter: 20 [(0%)]	Loss: 1.519731	soft_Loss: 1.408906	contrastive_Loss: 5.542022
Train iter: 30 [(1%)]	Loss: 1.232423	soft_Loss: 1.066180	contrastive_Loss: 5.543072
Train iter: 40 [(1%)]	Loss: 1.040467	soft_Loss: 0.818867	contrastive_Loss: 5.542960
…
Train iter: 4960 [(99%)]	Loss: 5.222243	soft_Loss: 0.004962	contrastive_Loss: 5.217794
Train iter: 4970 [(99%)]	Loss: 5.246280	soft_Loss: 0.004048	contrastive_Loss: 5.242738
Train iter: 4980 [(100%)]	Loss: 5.205076	soft_Loss: 0.005944	contrastive_Loss: 5.199623
Train iter: 4990 [(100%)]	Loss: 5.231021	soft_Loss: 0.005255	contrastive_Loss: 5.226251
Train iter: 5000 [(100%)]	Loss: 5.232441	soft_Loss: 0.005858	contrastive_Loss: 5.227057

load0_train set: Average loss: 135.4462, Accuracy: 23808/24000 (99.20%)


load0_train set: Average loss: 162.6813, Accuracy: 1974/2000 (98.70%)

(2400, 3200)
CNN_1D(
  (sharedNet): CNN(
    (layer1): Sequential(
      (0): Conv1d(1, 16, kernel_size=(64,), stride=(1,))
      (1): BatchNorm1d(16, eps=1e-05, momentum=0.1, affine=True, track_running_stats=True)
      (2): ReLU(inplace=True)
      (3): MaxPool1d(kernel_size=2, stride=2, padding=0, dilation=1, ceil_mode=False)
    )
    (layer2): Sequential(
      (0): Conv1d(16, 32, kernel_size=(16,), stride=(1,))
      (1): BatchNorm1d(32, eps=1e-05, momentum=0.1, affine=True, track_running_stats=True)
      (2): ReLU(inplace=True)
      (3): MaxPool1d(kernel_size=2, stride=2, padding=0, dilation=1, ceil_mode=False)
    )
    (layer3): Sequential(
      (0): Conv1d(32, 64, kernel_size=(5,), stride=(1,))
      (1): BatchNorm1d(64, eps=1e-05, momentum=0.1, affine=True, track_running_stats=True)
      (2): ReLU(inplace=True)
      (3): MaxPool1d(kernel_size=2, stride=2, padding=0, dilation=1, ceil_mode=False)
    )
    (layer4): Sequential(
      (0): Conv1d(64, 64, kernel_size=(5,), stride=(1,))
      (1): BatchNorm1d(64, eps=1e-05, momentum=0.1, affine=True, track_running_stats=True)
      (2): ReLU(inplace=True)
      (3): AdaptiveMaxPool1d(output_size=4)
    )
  )
  (cls_fc): Linear(in_features=256, out_features=12, bias=True)
)
learning rate 0.0010
Train iter: 10 [(0%)]	Loss: 2.319505	soft_Loss: 2.264073	contrastive_Loss: 5.543374
Train iter: 20 [(0%)]	Loss: 2.074096	soft_Loss: 1.963207	contrastive_Loss: 5.545214
Train iter: 30 [(1%)]	Loss: 1.971075	soft_Loss: 1.804809	contrastive_Loss: 5.543864
Train iter: 40 [(1%)]	Loss: 1.756552	soft_Loss: 1.534814	contrastive_Loss: 5.546393
…
