…
/home/Domain-generalization-fault-diagnosis-benchmark-main/data_loader_1d.py:81: UserWarning: To copy construct from a tensor, it is recommended to use sourceTensor.detach().clone() or sourceTensor.detach().clone().requires_grad_(True), rather than torch.tensor(sourceTensor).
  train_fea= torch.tensor(train_fea, dtype=torch.float32)
/home/Domain-generalization-fault-diagnosis-benchmark-main/data_loader_1d.py:101: UserWarning: To copy construct from a tensor, it is recommended to use sourceTensor.detach().clone() or sourceTensor.detach().clone().requires_grad_(True), rather than torch.tensor(sourceTensor).
  train_fea = torch.tensor(train_fea, dtype=torch.float32)
(2000, 3200)
DeepALL_ADV(
  (sharedNet): CNN(
    (layer1): Sequential(
      (0): Conv1d(1, 16, kernel_size=(64,), stride=(1,))
      (1): BatchNorm1d(16, eps=1e-05, momentum=0.1, affine=True, track_running_stats=True)
      (2): ReLU(inplace=True)
      (3): MaxPool1d(kernel_size=2, stride=2, padding=0, dilation=1, ceil_mode=False)
    )
    (layer2): Sequential(
      (0): Conv1d(16, 32, kernel_size=(16,), stride=(1,))
      (1): BatchNorm1d(32, eps=1e-05, momentum=0.1, affine=True, track_running_stats=True)
      (2): ReLU(inplace=True)
      (3): MaxPool1d(kernel_size=2, stride=2, padding=0, dilation=1, ceil_mode=False)
    )
    (layer3): Sequential(
      (0): Conv1d(32, 64, kernel_size=(5,), stride=(1,))
      (1): BatchNorm1d(64, eps=1e-05, momentum=0.1, affine=True, track_running_stats=True)
      (2): ReLU(inplace=True)
      (3): MaxPool1d(kernel_size=2, stride=2, padding=0, dilation=1, ceil_mode=False)
    )
    (layer4): Sequential(
      (0): Conv1d(64, 64, kernel_size=(5,), stride=(1,))
      (1): BatchNorm1d(64, eps=1e-05, momentum=0.1, affine=True, track_running_stats=True)
      (2): ReLU(inplace=True)
      (3): AdaptiveMaxPool1d(output_size=4)
    )
  )
  (cls_fc): Linear(in_features=256, out_features=10, bias=True)
  (domain_fc): AdversarialNetwork_multi(
    (ad_layer1): Linear(in_features=256, out_features=128, bias=True)
    (ad_layer2): Linear(in_features=128, out_features=3, bias=True)
    (relu1): ReLU()
    (relu2): ReLU()
    (dropout1): Dropout(p=0.5, inplace=False)
    (dropout2): Dropout(p=0.5, inplace=False)
    (softmax): Softmax(dim=None)
  )
)
learning rate 0.0050
Train iter: 10 [(0%)]	Loss: 1.758799	soft_Loss: 1.770480	confu_Loss: 1.168083
Train iter: 20 [(0%)]	Loss: 1.455070	soft_Loss: 1.476934	confu_Loss: 1.093319
Train iter: 30 [(1%)]	Loss: 0.803679	soft_Loss: 0.836545	confu_Loss: 1.095857
…
Train iter: 4960 [(99%)]	Loss: -1.098435	soft_Loss: 0.000093	confu_Loss: 1.098636
Train iter: 4970 [(99%)]	Loss: -1.098355	soft_Loss: 0.000141	confu_Loss: 1.098602
Train iter: 4980 [(100%)]	Loss: -1.098380	soft_Loss: 0.000106	confu_Loss: 1.098591
Train iter: 4990 [(100%)]	Loss: -1.098380	soft_Loss: 0.000139	confu_Loss: 1.098621
Train iter: 5000 [(100%)]	Loss: -1.098406	soft_Loss: 0.000103	confu_Loss: 1.098609

load0_train set: Average loss: 6.1223, Accuracy: 23808/24000 (99.20%)


load0_train set: Average loss: 81.8325, Accuracy: 1981/2000 (99.05%)

(2400, 3200)
DeepALL_ADV(
  (sharedNet): CNN(
    (layer1): Sequential(
      (0): Conv1d(1, 16, kernel_size=(64,), stride=(1,))
      (1): BatchNorm1d(16, eps=1e-05, momentum=0.1, affine=True, track_running_stats=True)
      (2): ReLU(inplace=True)
      (3): MaxPool1d(kernel_size=2, stride=2, padding=0, dilation=1, ceil_mode=False)
    )
    (layer2): Sequential(
      (0): Conv1d(16, 32, kernel_size=(16,), stride=(1,))
      (1): BatchNorm1d(32, eps=1e-05, momentum=0.1, affine=True, track_running_stats=True)
      (2): ReLU(inplace=True)
      (3): MaxPool1d(kernel_size=2, stride=2, padding=0, dilation=1, ceil_mode=False)
    )
    (layer3): Sequential(
      (0): Conv1d(32, 64, kernel_size=(5,), stride=(1,))
      (1): BatchNorm1d(64, eps=1e-05, momentum=0.1, affine=True, track_running_stats=True)
      (2): ReLU(inplace=True)
      (3): MaxPool1d(kernel_size=2, stride=2, padding=0, dilation=1, ceil_mode=False)
    )
    (layer4): Sequential(
      (0): Conv1d(64, 64, kernel_size=(5,), stride=(1,))
      (1): BatchNorm1d(64, eps=1e-05, momentum=0.1, affine=True, track_running_stats=True)
      (2): ReLU(inplace=True)
      (3): AdaptiveMaxPool1d(output_size=4)
    )
  )
  (cls_fc): Linear(in_features=256, out_features=12, bias=True)
  (domain_fc): AdversarialNetwork_multi(
    (ad_layer1): Linear(in_features=256, out_features=128, bias=True)
    (ad_layer2): Linear(in_features=128, out_features=3, bias=True)
    (relu1): ReLU()
    (relu2): ReLU()
    (dropout1): Dropout(p=0.5, inplace=False)
    (dropout2): Dropout(p=0.5, inplace=False)
    (softmax): Softmax(dim=None)
  )
)
learning rate 0.0050
Train iter: 10 [(0%)]	Loss: 2.702212	soft_Loss: 2.713758	confu_Loss: 1.154682
Train iter: 20 [(0%)]	Loss: 2.089900	soft_Loss: 2.111644	confu_Loss: 1.087352
Train iter: 30 [(1%)]	Loss: 1.669511	soft_Loss: 1.701048	confu_Loss: 1.051554
…
