…
/home/Domain-generalization-fault-diagnosis-benchmark-main/data_loader_1d.py:81: UserWarning: To copy construct from a tensor, it is recommended to use sourceTensor.detach().clone() or sourceTensor.detach().clone().requires_grad_(True), rather than torch.tensor(sourceTensor).
  train_fea= torch.tensor(train_fea, dtype=torch.float32)
/home/Domain-generalization-fault-diagnosis-benchmark-main/data_loader_1d.py:101: UserWarning: To copy construct from a tensor, it is recommended to use sourceTensor.detach().clone() or sourceTensor.detach().clone().requires_grad_(True), rather than torch.tensor(sourceTensor).
  train_fea = torch.tensor(train_fea, dtype=torch.float32)
(2000, 3200)
CNN_1D(
  (sharedNet): CNN(
    (layer1): Sequential(
      (0): Conv1d(1, 16, kernel_size=(64,), stride=(1,))
      (1): BatchNorm1d(16, eps=1e-05, momentum=0.1, affine=True, track_running_stats=True)
      (2): ReLU(inplace=True)
      (3): MaxPool1d(kernel_size=2, stride=2, padding=0, dilation=1, ceil_mode=False)
    )
    (layer2): Sequential(
      (0): Conv1d(16, 32, kernel_size=(16,), stride=(1,))
      (1): BatchNorm1d(32, eps=1e-05, momentum=0.1, affine=True, track_running_stats=True)
      (2): ReLU(inplace=True)
      (3): MaxPool1d(kernel_size=2, stride=2, padding=0, dilation=1, ceil_mode=False)
    )
    (layer3): Sequential(
      (0): Conv1d(32, 64, kernel_size=(5,), stride=(1,))
      (1): BatchNorm1d(64, eps=1e-05, momentum=0.1, affine=True, track_running_stats=True)
      (2): ReLU(inplace=True)
      (3): MaxPool1d(kernel_size=2, stride=2, padding=0, dilation=1, ceil_mode=False)
    )
    (layer4): Sequential(
      (0): Conv1d(64, 64, kernel_size=(5,), stride=(1,))
      (1): BatchNorm1d(64, eps=1e-05, momentum=0.1, affine=True, track_running_stats=True)
      (2): ReLU(inplace=True)
      (3): AdaptiveMaxPool1d(output_size=4)
    )
  )
  (cls_fc): Linear(in_features=256, out_features=10, bias=True)
)
learning rate 0.0010
Train iter: 10 [(0%)]	Loss: 1.877056	soft_Loss: 1.876441	MMD_Loss: 0.061562
Train iter: 20 [(0%)]	Loss: 1.411174	soft_Loss: 1.409427	MMD_Loss: 0.087387
Train iter: 30 [(1%)]	Loss: 1.049809	soft_Loss: 1.046964	MMD_Loss: 0.094875
Train iter: 40 [(1%)]	Loss: 0.829723	soft_Loss: 0.823929	MMD_Loss: 0.144935
Train iter: 50 [(1%)]	Loss: 0.554694	soft_Loss: 0.542908	MMD_Loss: 0.235900
…
Train iter: 4960 [(99%)]	Loss: 0.003820	soft_Loss: 0.001239	MMD_Loss: 0.002581
Train iter: 4970 [(99%)]	Loss: 0.003461	soft_Loss: 0.001158	MMD_Loss: 0.002303
Train iter: 4980 [(100%)]	Loss: 0.003648	soft_Loss: 0.001233	MMD_Loss: 0.002415
Train iter: 4990 [(100%)]	Loss: 0.004472	soft_Loss: 0.001426	MMD_Loss: 0.003047
Train iter: 5000 [(100%)]	Loss: 0.004400	soft_Loss: 0.001162	MMD_Loss: 0.003239

load0_train set: Average loss: 29.3455, Accuracy: 23808/24000 (99.20%)


load0_train set: Average loss: 95.4826, Accuracy: 1969/2000 (98.45%)

(2400, 3200)
CNN_1D(
  (sharedNet): CNN(
    (layer1): Sequential(
      (0): Conv1d(1, 16, kernel_size=(64,), stride=(1,))
      (1): BatchNorm1d(16, eps=1e-05, momentum=0.1, affine=True, track_running_stats=True)
      (2): ReLU(inplace=True)
      (3): MaxPool1d(kernel_size=2, stride=2, padding=0, dilation=1, ceil_mode=False)
    )
    (layer2): Sequential(
      (0): Conv1d(16, 32, kernel_size=(16,), stride=(1,))
      (1): BatchNorm1d(32, eps=1e-05, momentum=0.1, affine=True, track_running_stats=True)
      (2): ReLU(inplace=True)
      (3): MaxPool1d(kernel_size=2, stride=2, padding=0, dilation=1, ceil_mode=False)
    )
    (layer3): Sequential(
      (0): Conv1d(32, 64, kernel_size=(5,), stride=(1,))
      (1): BatchNorm1d(64, eps=1e-05, momentum=0.1, affine=True, track_running_stats=True)
      (2): ReLU(inplace=True)
      (3): MaxPool1d(kernel_size=2, stride=2, padding=0, dilation=1, ceil_mode=False)
    )
    (layer4): Sequential(
      (0): Conv1d(64, 64, kernel_size=(5,), stride=(1,))
      (1): BatchNorm1d(64, eps=1e-05, momentum=0.1, affine=True, track_running_stats=True)
      (2): ReLU(inplace=True)
      (3): AdaptiveMaxPool1d(output_size=4)
    )
  )
  (cls_fc): Linear(in_features=256, out_features=12, bias=True)
)
learning rate 0.0010
Train iter: 10 [(0%)]	Loss: 2.266237	soft_Loss: 2.263605	MMD_Loss: 0.263188
Train iter: 20 [(0%)]	Loss: 1.965005	soft_Loss: 1.960454	MMD_Loss: 0.227569
Train iter: 30 [(1%)]	Loss: 1.866472	soft_Loss: 1.853368	MMD_Loss: 0.436916
Train iter: 40 [(1%)]	Loss: 1.583205	soft_Loss: 1.565313	MMD_Loss: 0.447544
Train iter: 50 [(1%)]	Loss: 1.502446	soft_Loss: 1.482977	MMD_Loss: 0.389709
…
