…
/home/Domain-generalization-fault-diagnosis-benchmark-main/data_loader_1d.py:81: UserWarning: To copy construct from a tensor, it is recommended to use sourceTensor.detach().clone() or sourceTensor.detach().clone().requires_grad_(True), rather than torch.tensor(sourceTensor).
  train_fea= torch.tensor(train_fea, dtype=torch.float32)
/home/Domain-generalization-fault-diagnosis-benchmark-main/data_loader_1d.py:101: UserWarning: To copy construct from a tensor, it is recommended to use sourceTensor.detach().clone() or sourceTensor.detach().clone().requires_grad_(True), rather than torch.tensor(sourceTensor).
  train_fea = torch.tensor(train_fea, dtype=torch.float32)
(2000, 3200)
CNN_1D(
  (sharedNet): CNN(
    (layer1): Sequential(
      (0): Conv1d(1, 16, kernel_size=(64,), stride=(1,))
      (1): BatchNorm1d(16, eps=1e-05, momentum=0.1, affine=True, track_running_stats=True)
      (2): ReLU(inplace=True)
      (3): MaxPool1d(kernel_size=2, stride=2, padding=0, dilation=1, ceil_mode=False)
    )
    (layer2): Sequential(
      (0): Conv1d(16, 32, kernel_size=(16,), stride=(1,))
      (1): BatchNorm1d(32, eps=1e-05, momentum=0.1, affine=True, track_running_stats=True)
      (2): ReLU(inplace=True)
      (3): MaxPool1d(kernel_size=2, stride=2, padding=0, dilation=1, ceil_mode=False)
    )
    (layer3): Sequential(
      (0): Conv1d(32, 64, kernel_size=(5,), stride=(1,))
      (1): BatchNorm1d(64, eps=1e-05, momentum=0.1, affine=True, track_running_stats=True)
      (2): ReLU(inplace=True)
      (3): MaxPool1d(kernel_size=2, stride=2, padding=0, dilation=1, ceil_mode=False)
    )
    (layer4): Sequential(
      (0): Conv1d(64, 64, kernel_size=(5,), stride=(1,))
      (1): BatchNorm1d(64, eps=1e-05, momentum=0.1, affine=True, track_running_stats=True)
      (2): ReLU(inplace=True)
      (3): AdaptiveMaxPool1d(output_size=4)
    )
  )
  (cls_fc): Linear(in_features=256, out_features=10, bias=True)
)
learning rate 0.0010
Train iter: 10 [(0%)]	Loss: 1.879241	soft_Loss: 1.876456	MMD_Loss: 0.278481
Train iter: 20 [(0%)]	Loss: 1.395672	soft_Loss: 1.390457	MMD_Loss: 0.260794
Train iter: 30 [(1%)]	Loss: 1.095261	soft_Loss: 1.087734	MMD_Loss: 0.250984
Train iter: 40 [(1%)]	Loss: 0.872856	soft_Loss: 0.863429	MMD_Loss: 0.235798
Train iter: 50 [(1%)]	Loss: 0.575733	soft_Loss: 0.552669	MMD_Loss: 0.461674
…
Train iter: 4960 [(99%)]	Loss: 0.224142	soft_Loss: 0.022512	MMD_Loss: 0.201650
Train iter: 4970 [(99%)]	Loss: 0.220092	soft_Loss: 0.021482	MMD_Loss: 0.198629
Train iter: 4980 [(100%)]	Loss: 0.230267	soft_Loss: 0.020010	MMD_Loss: 0.210276
Train iter: 4990 [(100%)]	Loss: 0.255347	soft_Loss: 0.020809	MMD_Loss: 0.234561
Train iter: 5000 [(100%)]	Loss: 0.255644	soft_Loss: 0.019824	MMD_Loss: 0.235841

load0_train set: Average loss: 500.8206, Accuracy: 23808/24000 (99.20%)


load0_train set: Average loss: 182.5011, Accuracy: 1991/2000 (99.55%)

(2400, 3200)
CNN_1D(
  (sharedNet): CNN(
    (layer1): Sequential(
      (0): Conv1d(1, 16, kernel_size=(64,), stride=(1,))
      (1): BatchNorm1d(16, eps=1e-05, momentum=0.1, affine=True, track_running_stats=True)
      (2): ReLU(inplace=True)
      (3): MaxPool1d(kernel_size=2, stride=2, padding=0, dilation=1, ceil_mode=False)
    )
    (layer2): Sequential(
      (0): Conv1d(16, 32, kernel_size=(16,), stride=(1,))
      (1): BatchNorm1d(32, eps=1e-05, momentum=0.1, affine=True, track_running_stats=True)
      (2): ReLU(inplace=True)
      (3): MaxPool1d(kernel_size=2, stride=2, padding=0, dilation=1, ceil_mode=False)
    )
    (layer3): Sequential(
      (0): Conv1d(32, 64, kernel_size=(5,), stride=(1,))
      (1): BatchNorm1d(64, eps=1e-05, momentum=0.1, affine=True, track_running_stats=True)
      (2): ReLU(inplace=True)
      (3): MaxPool1d(kernel_size=2, stride=2, padding=0, dilation=1, ceil_mode=False)
    )
    (layer4): Sequential(
      (0): Conv1d(64, 64, kernel_size=(5,), stride=(1,))
      (1): BatchNorm1d(64, eps=1e-05, momentum=0.1, affine=True, track_running_stats=True)
      (2): ReLU(inplace=True)
      (3): AdaptiveMaxPool1d(output_size=4)
    )
  )
  (cls_fc): Linear(in_features=256, out_features=12, bias=True)
)
learning rate 0.0010
Train iter: 10 [(0%)]	Loss: 2.268296	soft_Loss: 2.264011	MMD_Loss: 0.428519
Train iter: 20 [(0%)]	Loss: 1.962604	soft_Loss: 1.957911	MMD_Loss: 0.234678
Train iter: 30 [(1%)]	Loss: 1.859254	soft_Loss: 1.847333	MMD_Loss: 0.397475
Train iter: 40 [(1%)]	Loss: 1.582386	soft_Loss: 1.568720	MMD_Loss: 0.341825
Train iter: 50 [(1%)]	Loss: 1.518432	soft_Loss: 1.503336	MMD_Loss: 0.302169
…
