…
/home/Domain-generalization-fault-diagnosis-benchmark-main/data_loader_1d.py:101: UserWarning: To copy construct from a tensor, it is recommended to use sourceTensor.detach().clone() or sourceTensor.detach().clone().requires_grad_(True), rather than torch.tensor(sourceTensor).
  train_fea = torch.tensor(train_fea, dtype=torch.float32)
/home/Domain-generalization-fault-diagnosis-benchmark-main/utils.py:152: UserWarning: This overload of addmm_ is deprecated:
	addmm_(Number beta, Number alpha, Tensor mat1, Tensor mat2)
Consider using one of the following signatures instead:
	addmm_(Tensor mat1, Tensor mat2, *, Number beta = 1, Number alpha = 1) (Triggered internally at /pytorch/torch/csrc/utils/python_arg_parser.cpp:1805.)
  dist_mtx = dist_mtx.addmm_(1, -2, emb1, emb2.t())
(2000, 3200)
DGNIS(
  (sharedNet1): CNN(
    (layer1): Sequential(
      (0): Conv1d(1, 16, kernel_size=(64,), stride=(1,))
      (1): BatchNorm1d(16, eps=1e-05, momentum=0.1, affine=True, track_running_stats=True)
      (2): ReLU(inplace=True)
      (3): MaxPool1d(kernel_size=2, stride=2, padding=0, dilation=1, ceil_mode=False)
    )
    (layer2): Sequential(
      (0): Conv1d(16, 32, kernel_size=(16,), stride=(1,))
      (1): BatchNorm1d(32, eps=1e-05, momentum=0.1, affine=True, track_running_stats=True)
      (2): ReLU(inplace=True)
      (3): MaxPool1d(kernel_size=2, stride=2, padding=0, dilation=1, ceil_mode=False)
    )
    (layer3): Sequential(
      (0): Conv1d(32, 64, kernel_size=(5,), stride=(1,))
      (1): BatchNorm1d(64, eps=1e-05, momentum=0.1, affine=True, track_running_stats=True)
      (2): ReLU(inplace=True)
      (3): MaxPool1d(kernel_size=2, stride=2, padding=0, dilation=1, ceil_mode=False)
    )
    (layer4): Sequential(
      (0): Conv1d(64, 64, kernel_size=(5,), stride=(1,))
      (1): BatchNorm1d(64, eps=1e-05, momentum=0.1, affine=True, track_running_stats=True)
      (2): ReLU(inplace=True)
      (3): AdaptiveMaxPool1d(output_size=4)
    )
  )
  (sharedNet2): CNN(
    (layer1): Sequential(
      (0): Conv1d(1, 16, kernel_size=(64,), stride=(1,))
      (1): BatchNorm1d(16, eps=1e-05, momentum=0.1, affine=True, track_running_stats=True)
      (2): ReLU(inplace=True)
      (3): MaxPool1d(kernel_size=2, stride=2, padding=0, dilation=1, ceil_mode=False)
    )
    (layer2): Sequential(
      (0): Conv1d(16, 32, kernel_size=(16,), stride=(1,))
      (1): BatchNorm1d(32, eps=1e-05, momentum=0.1, affine=True, track_running_stats=True)
      (2): ReLU(inplace=True)
      (3): MaxPool1d(kernel_size=2, stride=2, padding=0, dilation=1, ceil_mode=False)
    )
    (layer3): Sequential(
      (0): Conv1d(32, 64, kernel_size=(5,), stride=(1,))
      (1): BatchNorm1d(64, eps=1e-05, momentum=0.1, affine=True, track_running_stats=True)
      (2): ReLU(inplace=True)
      (3): MaxPool1d(kernel_size=2, stride=2, padding=0, dilation=1, ceil_mode=False)
    )
    (layer4): Sequential(
      (0): Conv1d(64, 64, kernel_size=(5,), stride=(1,))
      (1): BatchNorm1d(64, eps=1e-05, momentum=0.1, affine=True, track_running_stats=True)
      (2): ReLU(inplace=True)
      (3): AdaptiveMaxPool1d(output_size=4)
    )
  )
  (cls_fc_1): Linear(in_features=256, out_features=10, bias=True)
  (cls_fc_2): Linear(in_features=256, out_features=10, bias=True)
  (cls_fc_3): Linear(in_features=256, out_features=10, bias=True)
  (test_domain_fc): Linear(in_features=256, out_features=3, bias=True)
)
learning rate 0.0001
Train iter: 10 [(0%)]	Loss: 9.836485	soft_Loss: 7.937449	MMD_Loss: 0.058142	Tri_Loss: 12.007603	TEST_domain_Loss: 1.778381
Train iter: 20 [(0%)]	Loss: 8.805009	soft_Loss: 7.206093	MMD_Loss: 0.045045	Tri_Loss: 12.276245	TEST_domain_Loss: 1.352523
Train iter: 30 [(1%)]	Loss: 8.706277	soft_Loss: 7.137897	MMD_Loss: 0.049078	Tri_Loss: 11.841621	TEST_domain_Loss: 1.211767
…
