…
/home/Domain-generalization-fault-diagnosis-benchmark-main/data_loader_1d.py:81: UserWarning: To copy construct from a tensor, it is recommended to use sourceTensor.detach().clone() or sourceTensor.detach().clone().requires_grad_(True), rather than torch.tensor(sourceTensor).
  train_fea= torch.tensor(train_fea, dtype=torch.float32)
/home/Domain-generalization-fault-diagnosis-benchmark-main/data_loader_1d.py:101: UserWarning: To copy construct from a tensor, it is recommended to use sourceTensor.detach().clone() or sourceTensor.detach().clone().requires_grad_(True), rather than torch.tensor(sourceTensor).
  train_fea = torch.tensor(train_fea, dtype=torch.float32)
(2000, 3200)
CNN_1D(
  (sharedNet): CNN(
    (layer1): Sequential(
      (0): Conv1d(1, 16, kernel_size=(64,), stride=(1,))
      (1): BatchNorm1d(16, eps=1e-05, momentum=0.1, affine=True, track_running_stats=True)
      (2): ReLU(inplace=True)
      (3): MaxPool1d(kernel_size=2, stride=2, padding=0, dilation=1, ceil_mode=False)
    )
    (layer2): Sequential(
      (0): Conv1d(16, 32, kernel_size=(16,), stride=(1,))
      (1): BatchNorm1d(32, eps=1e-05, momentum=0.1, affine=True, track_running_stats=True)
      (2): ReLU(inplace=True)
      (3): MaxPool1d(kernel_size=2, stride=2, padding=0, dilation=1, ceil_mode=False)
    )
    (layer3): Sequential(
      (0): Conv1d(32, 64, kernel_size=(5,), stride=(1,))
      (1): BatchNorm1d(64, eps=1e-05, momentum=0.1, affine=True, track_running_stats=True)
      (2): ReLU(inplace=True)
      (3): MaxPool1d(kernel_size=2, stride=2, padding=0, dilation=1, ceil_mode=False)
    )
    (layer4): Sequential(
      (0): Conv1d(64, 64, kernel_size=(5,), stride=(1,))
      (1): BatchNorm1d(64, eps=1e-05, momentum=0.1, affine=True, track_running_stats=True)
      (2): ReLU(inplace=True)
      (3): AdaptiveMaxPool1d(output_size=4)
    )
  )
  (cls_fc): Linear(in_features=256, out_features=10, bias=True)
)
learning rate 0.0050
Traceback (most recent call last):
  File "/home/Domain-generalization-fault-diagnosis-benchmark-main/ERM.py", line 50, in train
    src_data, src_label = src_iter.next()
                          ^^^^^^^^^^^^^
AttributeError: '_SingleProcessDataLoaderIter' object has no attribute 'next'

During handling of the above exception, another exception occurred:
…
Train iter: 4940 [(99%)]	Loss: 0.000215	soft_Loss: 0.000215
Train iter: 4950 [(99%)]	Loss: 0.000133	soft_Loss: 0.000133
Train iter: 4960 [(99%)]	Loss: 0.000108	soft_Loss: 0.000108
Train iter: 4970 [(99%)]	Loss: 0.000124	soft_Loss: 0.000124
Train iter: 4980 [(100%)]	Loss: 0.000143	soft_Loss: 0.000143
Train iter: 4990 [(100%)]	Loss: 0.000154	soft_Loss: 0.000154
Train iter: 5000 [(100%)]	Loss: 0.000109	soft_Loss: 0.000109

load0_train set: Average loss: 1521.5767, Accuracy: 23253/24000 (9688.75%)


load0_train set: Average loss: 704.2891, Accuracy: 1767/2000 (8835.00%)

(2400, 3200)
CNN_1D(
  (sharedNet): CNN(
    (layer1): Sequential(
      (0): Conv1d(1, 16, kernel_size=(64,), stride=(1,))
      (1): BatchNorm1d(16, eps=1e-05, momentum=0.1, affine=True, track_running_stats=True)
      (2): ReLU(inplace=True)
      (3): MaxPool1d(kernel_size=2, stride=2, padding=0, dilation=1, ceil_mode=False)
    )
    (layer2): Sequential(
      (0): Conv1d(16, 32, kernel_size=(16,), stride=(1,))
      (1): BatchNorm1d(32, eps=1e-05, momentum=0.1, affine=True, track_running_stats=True)
      (2): ReLU(inplace=True)
      (3): MaxPool1d(kernel_size=2, stride=2, padding=0, dilation=1, ceil_mode=False)
    )
    (layer3): Sequential(
      (0): Conv1d(32, 64, kernel_size=(5,), stride=(1,))
      (1): BatchNorm1d(64, eps=1e-05, momentum=0.1, affine=True, track_running_stats=True)
      (2): ReLU(inplace=True)
      (3): MaxPool1d(kernel_size=2, stride=2, padding=0, dilation=1, ceil_mode=False)
    )
    (layer4): Sequential(
      (0): Conv1d(64, 64, kernel_size=(5,), stride=(1,))
      (1): BatchNorm1d(64, eps=1e-05, momentum=0.1, affine=True, track_running_stats=True)
      (2): ReLU(inplace=True)
      (3): AdaptiveMaxPool1d(output_size=4)
    )
  )
  (cls_fc): Linear(in_features=256, out_features=12, bias=True)
)
learning rate 0.0050
Train iter: 10 [(0%)]	Loss: 2.795642	soft_Loss: 2.795642
Train iter: 20 [(0%)]	Loss: 2.109156	soft_Loss: 2.109156
Train iter: 30 [(1%)]	Loss: 1.824376	soft_Loss: 1.824376
Train iter: 40 [(1%)]	Loss: 1.583141	soft_Loss: 1.583141
Train iter: 50 [(1%)]	Loss: 1.501804	soft_Loss: 1.501804
Train iter: 60 [(1%)]	Loss: 1.265302	soft_Loss: 1.265302
…
